network/heloc_model.pth (torch, 3935 bytes, 4 tensors)

weight f4 [15, 23]
0	0x3f108581	0.5645371
1	0x3e541b91	0.20713641
2	0xbda0aa75	-0.07845012
3	0x3f15e499	0.5855194
4	0x3eb6b7c2	0.3568707
5	0x3c0ff5cd	0.008786631
6	0x3c1694f9	0.009190791
7	0x3e5f85ba	0.21828356
8	0x3e7966ec	0.24355668
9	0xbd709e66	-0.05874481
10	0x3e074de1	0.13213302
11	0x3d06ff5f	0.032958385
12	0x3d240ced	0.04005139
13	0xbd87979e	-0.066207156
14	0x3e52f748	0.20602143
15	0xbf25479c	-0.6456239
16	0x3e459205	0.19293983
17	0xbef7b413	-0.48379573
18	0xbddc1e98	-0.10748023
19	0xbe84fe8f	-0.25975463
20	0xbd8166ca	-0.063184336
21	0x3e83b16e	0.25721306
22	0xbcafae04	-0.021445282
23	0x3e9271d1	0.2860246
24	0xbdf47d0a	-0.11937912
25	0xbf89aaca	-1.0755246
26	0x3d57522e	0.052568607
27	0x3e8acfe0	0.2711172
28	0x3edf2509	0.43582943
29	0x3e5520eb	0.20813338
30	0x3e044e08	0.12920392
31	0xbfca803f	-1.5820388
32	0xbe1c97e2	-0.15292314
33	0x3e5ca1db	0.21546118
34	0xbd788ccb	-0.060681146
35	0xbe27b520	-0.16377687
36	0x3cb163ab	0.02165397
37	0x3f0c97b2	0.5491897
38	0xbeee8d3a	-0.46592122
39	0x3c9351e8	0.017983392
40	0xbef41035	-0.47668615
41	0x3dedf03e	0.11618088
42	0xbe588bf0	-0.21147132
43	0x3e672c45	0.22575481
44	0x3d8ae8b6	0.06782667
45	0x3b2e0791	0.0026554803
46	0x3f03150e	0.51204
47	0x3da8a60e	0.082347974
48	0x3e833d2b	0.25632605
49	0x3e5ea9db	0.21744482
50	0x3e14401f	0.14477585
51	0xbe08e555	-0.13368733
52	0xbdfa6479	-0.12226195
53	0x3e9d7a33	0.30757293
54	0x3e3a73e9	0.18208279
55	0x3e30a29d	0.17249532
56	0x3d468a14	0.048471525
57	0xbcc5bed3	-0.024138844
58	0x3d7144c4	0.05890347
59	0xbe38ec81	-0.18058969
60	0x3dc544bb	0.0963225
61	0xbf3eb8fe	-0.74501026
62	0x3dd5bf4c	0.104368776
63	0xbee27519	-0.44229963
64	0x3dc073fc	0.09397122
65	0xbeb32023	-0.34985456
66	0x3e630f08	0.22173703
67	0x3db40074	0.08789149
68	0xbc027c2e	-0.007964177
69	0x3e59a433	0.21254043
70	0x3e309b4c	0.17246741
71	0x3c5903e8	0.01324556
72	0x3eb93fe5	0.3618156
73	0x3ea7edd1	0.32798627
74	0xbf43564b	-0.7630355
75	0xbbec846a	-0.0072179334
76	0xbde993e7	-0.11405163
77	0xbd0a63c0	-0.033786535
78	0x3dd7e6a0	0.10542035
79	0x3ed596ea	0.417167
80	0xbe0305ee	-0.12795231
81	0xbe25778d	-0.16158886
82	0xbda6bf04	-0.08141902
83	0xbdc28ce7	-0.09499531
84	0xbf0376c9	-0.51353127
85	0xbceecdd6	-0.029150885
86	0xbe794733	-0.24343567
87	0x3dca2031	0.09869421
88	0xbe9afc99	-0.30270842
89	0x3ec05536	0.3756501
90	0x3d464716	0.048407637
91	0x3e267651	0.16256072
92	0x3dfe8b44	0.124289066
93	0x3e1126ea	0.14175001
94	0xbe1ad68e	-0.15120909
95	0xbde3fb53	-0.11131921
96	0x3e4382d0	0.1909287
97	0xbd9018a9	-0.070359536
98	0xbd97644d	-0.07392178
99	0xbe4e997f	-0.20175742
100	0xbdf48d3a	-0.11940999
101	0x3d5559df	0.05208766
102	0xbce176d2	-0.027522478
103	0xbe1afd82	-0.15135768
104	0x3ba0452c	0.0048910584
105	0xbe11d9c8	-0.14243233
106	0xbe35260a	-0.17690292
107	0xbdeb2752	-0.11482109
108	0xbe3adfcb	-0.18249433
109	0xbe07f49d	-0.13276906
110	0x3e556f6c	0.20843285
111	0x3d21503a	0.03938315
112	0x3d839883	0.06425574
113	0xbe472545	-0.19447811
114	0xbe0c3bc8	-0.1369468
115	0xbe61a9c5	-0.22037418
116	0x3edd692d	0.43244305
117	0xbef1c0ff	-0.47217557
118	0x3e8c800e	0.27441448
119	0x3e2a4d62	0.16631082
120	0x3eeb5aed	0.45967808
121	0x3ecc0130	0.39844656
122	0x3e3b3387	0.18281375
123	0x3c364747	0.011125392
124	0xbf24bfa1	-0.643549
125	0xbfd951f1	-1.6978132
126	0x3e860f8d	0.2618374
127	0xbe6fd7ea	-0.23422208
128	0x3eca7c1f	0.39547822
129	0xbe1b3052	-0.15155151
130	0x3efe10c8	0.49622178
131	0x3ec37951	0.38178495
132	0xbf57a871	-0.84241396
133	0x3dc31ab0	0.095265746
134	0xbf511a81	-0.81681067
135	0xbe610fb2	-0.21978644
136	0xbfae5808	-1.3620615
137	0xbf800e9d	-1.000446
138	0xbe8a9830	-0.27069235
139	0xbdf85fa9	-0.12127621
140	0x3e7d529b	0.24738543
141	0xbf06c52c	-0.5264461
142	0xbe4af196	-0.1981872
143	0xbd4d45c9	-0.05011538
144	0xbd1279fa	-0.035760857
145	0xbd941792	-0.07231058
146	0x3dc376eb	0.09544166
147	0x3df1891b	0.11793729
148	0x3e676d6e	0.22600338
149	0xbe28824a	-0.16455951
150	0x3ce53414	0.027978934
151	0x3e14f406	0.14546213
152	0xbdad4c86	-0.08461861
153	0x3ee2fa13	0.44331416
154	0x3e2bc0c4	0.16772753
155	0x3e4532dd	0.19257684
156	0x3e8cfaf5	0.27535215
157	0x3ec06028	0.3757336
158	0x3d7ba6f9	0.061438534
159	0xbe967b4e	-0.2939095
160	0x3e1ae52e	0.15126488
161	0x3ed183f9	0.40921
162	0x3d8a8ff3	0.067657374
163	0xbe44cceb	-0.19218795
164	0x3edab108	0.4271319
165	0x3e969f64	0.2941848
166	0xbe537bee	-0.20652744
167	0x3e885bea	0.26632625
168	0x3e3aef5e	0.18255374
169	0xbdb58757	-0.08863705
170	0xbca0153b	-0.019541373
171	0x3b183548	0.0023225117
172	0x3da91199	0.082553096
173	0xbcd96935	-0.026539424
174	0xbe361382	-0.17780879
175	0x3d33212f	0.04373282
176	0xbf2e38b4	-0.6805527
177	0x3e2ea031	0.17053296
178	0xbe6435e2	-0.2228618
179	0xbe881a73	-0.2658268
180	0xbe86b6aa	-0.26311237
181	0x3e0dfffd	0.13867183
182	0x3e628279	0.22120084
183	0x3d09956b	0.03358976
184	0x3ef501ca	0.47852927
185	0x3e3d31ff	0.18476103
186	0x3ca6a93b	0.020344367
187	0x3e9b68d0	0.30353403
188	0x3e9cb6fc	0.30608356
189	0xbe3560e2	-0.17712739
190	0xbd860b1d	-0.065450884
191	0x3db9a48b	0.09064587
192	0x3e446728	0.19179976
193	0x3e46b63d	0.19405456
194	0xbc78284e	-0.015146328
195	0xbd6fb819	-0.05852518
196	0xbbdc9002	-0.0067310343
197	0xbe238fd5	-0.15972836
198	0x3e2e1efb	0.17004006
199	0xbefeb2c0	-0.4974575
200	0xbdf6e552	-0.12055458
201	0xbed239de	-0.41059774
202	0x3de26a64	0.11055449
203	0xbe4acaeb	-0.1980397
204	0x3c6f0a32	0.014589833
205	0x3dd0f74b	0.102034174
206	0xbd1b1cae	-0.037869148
207	0xbe3f4355	-0.18678029
208	0xbd8b32bc	-0.06796786
209	0x3d90365d	0.07041619
210	0x3e0824e9	0.1329533
211	0x3dc5297e	0.09627055
212	0xbe3cbd17	-0.18431507
213	0xbe0066f4	-0.12539274
214	0xbd06c98a	-0.032907046
215	0x3e4e8c1a	0.20170632
216	0x3cf718c1	0.03016317
217	0xbd5d2e31	-0.05399913
218	0x3db0ac03	0.08626559
219	0xbda2a695	-0.07941929
220	0xbe0a3383	-0.13496213
221	0x3e1bd839	0.15219201
222	0xbdc22cba	-0.09481187
223	0xbd2b36b1	-0.041800205
224	0xbe5468cc	-0.20743102
225	0x3e0ee6de	0.13955256
226	0x3e21c4eb	0.15797774
227	0x3d9ba20f	0.075992696
228	0xbe14e191	-0.14539172
229	0xbe52baed	-0.20579119
230	0xbe9485be	-0.29008287
231	0x3e80a11a	0.2512291
232	0x3efc534d	0.49282303
233	0x3d0018cd	0.031273652
234	0xbd9735db	-0.07383319
235	0xbe4b1891	-0.1983359
236	0xbef6d793	-0.48211345
237	0xbe29e45b	-0.16591017
238	0xbd9ac7ab	-0.07557615
239	0xbe085103	-0.13312154
240	0x3e720eec	0.23638505
241	0x3d491836	0.049095355
242	0xbde26174	-0.11053744
243	0x3dcfe556	0.10151164
244	0x3dc05fa7	0.09393244
245	0x3f005e82	0.5014421
246	0xbe0edf6c	-0.13952416
247	0x3ea178fb	0.31537613
248	0x3d1b9d95	0.03799208
249	0x3eef6aff	0.4676132
250	0xbd339f86	-0.043853305
251	0xbebedecb	-0.37279353
252	0xbe0c07ee	-0.136749
253	0xbed671da	-0.41883737
254	0xbe050f44	-0.12994105
255	0xbd064be6	-0.032787226

bias f4 [15]
0	0xbef89a4a	-0.48555213
1	0xbe904142	-0.28174788
2	0xbed9abe2	-0.4251395
3	0xbf13c616	-0.5772413
4	0x3d4f05d9	0.050542686
5	0x3e5d719f	0.21625374
6	0x3effc8a7	0.49957773
7	0xbe2f62ee	-0.17127582
8	0xbe66a9f5	-0.22525771
9	0xbe53b43d	-0.20674224
10	0x3f034306	0.51274145
11	0x3f072ebb	0.5280568
12	0xbc9de066	-0.01927204
13	0xbdfba4f1	-0.122873195
14	0x3e2509e6	0.16117057

weight f4 [2, 15]
0	0xbf1e6a2a	-0.61880744
1	0xbf432d03	-0.7624056
2	0xbf32d849	-0.69861275
3	0xbf525956	-0.82167566
4	0x3dea5330	0.11441648
5	0xbfd84f74	-1.6899247
6	0x3e7292e0	0.23688841
7	0xbed52705	-0.41631332
8	0xbefc2976	-0.49250382
9	0x3b94fca0	0.004546717
10	0x3f5868ed	0.84535104
11	0x3eef99e0	0.46797085
12	0xbe19f0b2	-0.15033224
13	0xbd094884	-0.033516422
14	0xbe1711eb	-0.14752929
15	0x3ecb9b58	0.39766955
16	0x3f29836e	0.6621617
17	0x3f1b3f24	0.6064322
18	0x3f860734	1.0470948
19	0xbe72be46	-0.23705396
20	0x3ff5b952	1.919718
21	0xbebc627a	-0.36793882
22	0x3ea26624	0.31718552
23	0x3ef09328	0.4698727
24	0x3b6d9d98	0.0036257263
25	0xbec00024	-0.37500107
26	0xbf09fcc4	-0.53901315
27	0xbdc9fa0a	-0.09862144
28	0x3e1a35a4	0.15059525
29	0xbdcae1ff	-0.099063866

bias f4 [2]
0	0x3eae172f	0.34002063
1	0xbf00201b	-0.5004899
